…
,че-то мутное,на более хорошей сетке такое(с первой эпохи начинает вырисовываться основная форма),но в целом расслабляет
,,,гарантированно
,,гарантированно,"Сложно, через компании легче"
,,,че это такое
,,че это такое,Судя по всему попытка обучить ган на лица в грей скейле и разрешением 64*64
,че это такое,Судя по всему попытка обучить ган на лица в грей скейле и разрешением 64*64,выглядит не очень
,,,А это инференс после каждой итерации
,,А это инференс после каждой итерации,2-я эпоха
,,,сколько м параметров в дискр и генераторе?
,,сколько м параметров в дискр и генераторе?,"конфиги такие:
Discriminator(
  (main): Sequential(
    (0): Conv2d(1, 64, kernel_size=(4, 4), stride=(2, 2), padding=(1, 1), bias=False)
    (1): LeakyReLU(negative_slope=0.2, inplace=True)
    (2): Conv2d(64, 128, kernel_size=(4, 4), stride=(2, 2), padding=(1, 1), bias=False)
    (3): BatchNorm2d(128, eps=1e-05, momentum=0.1, affine=True, track_running_stats=True)
    (4): LeakyReLU(negative_slope=0.2, inplace=True)
    (5): Conv2d(128, 256, kernel_size=(4, 4), stride=(2, 2), padding=(1, 1), bias=False)
    (6): BatchNorm2d(256, eps=1e-05, momentum=0.1, affine=True, track_running_stats=True)
    (7): LeakyReLU(negative_slope=0.2, inplace=True)
    (8): Conv2d(256, 512, kernel_size=(4, 4), stride=(2, 2), padding=(1, 1), bias=False)
    (9): BatchNorm2d(512, eps=1e-05, momentum=0.1, affine=True, track_running_stats=True)
    (10): LeakyReLU(negative_slope=0.2, inplace=True)
    (11): Flatten(start_dim=1, end_dim=-1)
  )
  (fc): Sequential(
    (0): Linear(in_features=8199, out_features=1, bias=True)
    (1): Sigmoid()
  )
)"
,сколько м параметров в дискр и генераторе?,"конфиги такие:
Discriminator(
  (main): Sequential(
    (0): Conv2d(1, 64, kernel_size=(4, 4), stride=(2, 2), padding=(1, 1), bias=False)
    (1): LeakyReLU(negative_slope=0.2, inplace=True)
    (2): Conv2d(64, 128, kernel_size=(4, 4), stride=(2, 2), padding=(1, 1), bias=False)
    (3): BatchNorm2d(128, eps=1e-05, momentum=0.1, affine=True, track_running_stats=True)
    (4): LeakyReLU(negative_slope=0.2, inplace=True)
    (5): Conv2d(128, 256, kernel_size=(4, 4), stride=(2, 2), padding=(1, 1), bias=False)
    (6): BatchNorm2d(256, eps=1e-05, momentum=0.1, affine=True, track_running_stats=True)
    (7): LeakyReLU(negative_slope=0.2, inplace=True)
    (8): Conv2d(256, 512, kernel_size=(4, 4), stride=(2, 2), padding=(1, 1), bias=False)
    (9): BatchNorm2d(512, eps=1e-05, momentum=0.1, affine=True, track_running_stats=True)
    (10): LeakyReLU(negative_slope=0.2, inplace=True)
    (11): Flatten(start_dim=1, end_dim=-1)
  )
  (fc): Sequential(
    (0): Linear(in_features=8199, out_features=1, bias=True)
    (1): Sigmoid()
  )
)","Generator(
  (main): Sequential(
    (0): ConvTranspose2d(107, 1536, kernel_size=(4, 4), stride=(1, 1))
    (1): BatchNorm2d(1536, eps=1e-05, momentum=0.1, affine=True, track_running_stats=True)
    (2): ReLU(inplace=True)
    (3): ConvTranspose2d(1536, 768, kernel_size=(4, 4), stride=(2, 2), padding=(1, 1))
    (4): BatchNorm2d(768, eps=1e-05, momentum=0.1, affine=True, track_running_stats=True)
    (5): ReLU(inplace=True)
    (6): ConvTranspose2d(768, 384, kernel_size=(4, 4), stride=(2, 2), padding=(1, 1))
    (7): BatchNorm2d(384, eps=1e-05, momentum=0.1, affine=True, track_running_stats=True)
    (8): ReLU(inplace=True)
    (9): ConvTranspose2d(384, 192, kernel_size=(4, 4), stride=(2, 2), padding=(1, 1))
    (10): BatchNorm2d(192, eps=1e-05, momentum=0.1, affine=True, track_running_stats=True)
    (11): ReLU(inplace=True)
    (12): ConvTranspose2d(192, 1, kernel_size=(4, 4), stride=(2, 2), padding=(1, 1))
    (13): ReLU()
  )
)"
сколько м параметров в дискр и генераторе?,"конфиги такие:
Discriminator(
  (main): Sequential(
    (0): Conv2d(1, 64, kernel_size=(4, 4), stride=(2, 2), padding=(1, 1), bias=False)
    (1): LeakyReLU(negative_slope=0.2, inplace=True)
    (2): Conv2d(64, 128, kernel_size=(4, 4), stride=(2, 2), padding=(1, 1), bias=False)
    (3): BatchNorm2d(128, eps=1e-05, momentum=0.1, affine=True, track_running_stats=True)
    (4): LeakyReLU(negative_slope=0.2, inplace=True)
    (5): Conv2d(128, 256, kernel_size=(4, 4), stride=(2, 2), padding=(1, 1), bias=False)
    (6): BatchNorm2d(256, eps=1e-05, momentum=0.1, affine=True, track_running_stats=True)
    (7): LeakyReLU(negative_slope=0.2, inplace=True)
    (8): Conv2d(256, 512, kernel_size=(4, 4), stride=(2, 2), padding=(1, 1), bias=False)
    (9): BatchNorm2d(512, eps=1e-05, momentum=0.1, affine=True, track_running_stats=True)
    (10): LeakyReLU(negative_slope=0.2, inplace=True)
    (11): Flatten(start_dim=1, end_dim=-1)
  )
  (fc): Sequential(
    (0): Linear(in_features=8199, out_features=1, bias=True)
    (1): Sigmoid()
  )
)","Generator(
  (main): Sequential(
    (0): ConvTranspose2d(107, 1536, kernel_size=(4, 4), stride=(1, 1))
    (1): BatchNorm2d(1536, eps=1e-05, momentum=0.1, affine=True, track_running_stats=True)
    (2): ReLU(inplace=True)
    (3): ConvTranspose2d(1536, 768, kernel_size=(4, 4), stride=(2, 2), padding=(1, 1))
    (4): BatchNorm2d(768, eps=1e-05, momentum=0.1, affine=True, track_running_stats=True)
    (5): ReLU(inplace=True)
    (6): ConvTranspose2d(768, 384, kernel_size=(4, 4), stride=(2, 2), padding=(1, 1))
    (7): BatchNorm2d(384, eps=1e-05, momentum=0.1, affine=True, track_running_stats=True)
    (8): ReLU(inplace=True)
    (9): ConvTranspose2d(384, 192, kernel_size=(4, 4), stride=(2, 2), padding=(1, 1))
    (10): BatchNorm2d(192, eps=1e-05, momentum=0.1, affine=True, track_running_stats=True)
    (11): ReLU(inplace=True)
    (12): ConvTranspose2d(192, 1, kernel_size=(4, 4), stride=(2, 2), padding=(1, 1))
    (13): ReLU()
  )
)",(на входе 100(шум)+7(метка класса))
,,,2*2
,,2*2,а сколько параметров то
,,,ты не считал?
,,ты не считал?,"Так:
Дискременатор:
64*4*4+64*128*4*4+128*256*4*4+256*512*4*4+(8199+1)
Генератор:
(107*1536*4*4+1536)+(1536*768*4*4+758)+(768*384*4*4+384)+(384*192*4*4+192)+(192*4*4+1)
На глаз и там и там ближе к 200м"
,,,нет пока
…
